# YOLOv5 🚀 by Ultralytics, GPL-3.0 license

# Parameters
nc: 6  # number of classes
depth_multiple: 0.33  # model depth multiple
width_multiple: 0.50  # layer channel multiple
anchors: 3  # AutoAnchor evolves 3 anchors per P output layer

# YOLOv5 v6.0 backbone
backbone:
  # [from, number, module, args]
  [ [ -1, 1, stems, [ 24, 3, 2 ] ],  # 0-P1/2
    [ -1, 2, FusedMBConv, [ 24, 3, 1, 1, 0 ] ], # 1-p2/4
    [ -1, 1, FusedMBConv, [ 48, 3, 2, 4, 0 ] ], # 2
    [ -1, 3, FusedMBConv, [ 48, 3, 1, 4, 0 ] ], # 3
    [ -1, 1, FusedMBConv, [ 64, 3, 2, 4, 0 ] ], # 4
    [ -1, 3, FusedMBConv, [ 64, 3, 1, 4, 0 ] ], # 5
    [ -1, 1, MBConv, [ 128, 3, 2, 4 ] ], # 6
    [ -1, 5, MBConv, [ 128, 3, 1, 4 ] ], # 7
    [ -1, 1, MBConv, [ 160, 3, 2, 6 ] ], # 8
    [ -1, 8, MBConv, [ 160, 3, 1, 6 ] ], # 9
    [ -1, 1, MBConv, [ 256, 3, 2, 4 ] ], # 10
    [ -1, 14, MBConv, [ 256, 3, 1, 4 ] ], # 11
    [ -1, 1, SPPF, [ 512, 5 ] ], #12
  ]

# YOLOv5 v6.0 head with (P3, P4) outputs
head:
  [ [ -1, 1, Conv, [ 512, 1, 1 ] ],
    [ -1, 1, nn.Upsample, [ None, 2, 'nearest' ] ],
    [ [ -1, 9 ], 1, Concat, [ 1 ] ],  # cat backbone P4
    [ -1, 3, C3, [ 512, False ] ],  # 13

    [ -1, 1, Conv, [ 256, 1, 1 ] ],
    [ -1, 1, nn.Upsample, [ None, 2, 'nearest' ] ],
    [ [ -1, 7 ], 1, Concat, [ 1 ] ],  # cat backbone P3
    [ -1, 3, C3, [ 256, False ] ],  # 17 (P3/8-small)

    [ -1, 1, Conv, [ 256, 3, 2 ] ],
    [ [ -1, 17 ], 1, Concat, [ 1 ] ],  # cat head P4
    [ -1, 3, C3, [ 512, False ] ],  # 20 (P4/16-medium)

    [ [ 20, 23 ], 1, Detect, [ nc, anchors ] ],  # Detect(P3, P4)
  ]
